models/bearing_model.onnx (onnx, 74568 bytes, 13 tensors)

StatefulPartitionedCall/sequential_1/conv2d_6_1/convolution/ReadVariableOp:0 f4 [1, 32, 3, 3]
00000000: c249 ae3b 5719 e73d da38 f03d 6796 ec3d
00000010: 8c10 833d ee07 be3d 9d2a f83d 1561 8e3d
00000020: 38f3 3b3b 859b 083d 82d1 f5bb d542 ce3b
00000030: cda6 3cbc 7e46 94bd 5577 093e 0cde 62bd
00000040: 5b95 083e d000 e9b8 2f64 17be 9a67 053e
00000050: 7d34 f93d f76b 193e 53d8 2b3e b359 a43d
00000060: 40f7 c33d e6c8 ce3d 4fc9 13bd 4e85 b5bd
00000070: 0425 343d cb84 eebd d91b e1bd a79d cc3d
00000080: c3e0 f6b8 86f5 b83d 7f41 06be bc45 0e3e
00000090: 342f a5bc 5baa d2bc 3c4d 06be fbdd 7c3d
000000a0: ce7c 6cbd 3153 8e3d c6e3 01bc cb7d 023e
000000b0: 8d1b 2c3d b99a 29bd 0e62 613c 68fb b0bd
000000c0: c904 163e fb65 31bd 57ad e83c 1da4 c6bb
000000d0: f1ed 75ba a3fc 2e3d e028 853d 9908 033c
000000e0: 1ac0 67bd c3f8 803d ce5f cfbd 2e07 003e
000000f0: 7751 c13d 6698 b23d df51 ab3d cb63 7e3d
00000100: 24fe 2f3d aead 973e 7d31 893e af7b 7e3e
00000110: b9a3 a53d 359f 9a3d bd8a a5bb 8e90 0abe
00000120: 79af ef3d 6849 373d 984b 0c3e 07f8 193c
00000130: c1d1 d1bd 3f2d 88bd cc67 dc3b da0f 2d3b
00000140: 6d6a 83bd 0291 9cbd f6ff f33d 04fd a8bd
00000150: 4a2e c13d 7c2e 9bbc e67c 3abd 7617 e13d
00000160: cc4f b63d cb1c 953d cd09 c73d f0d3 473d
00000170: 60d4 053d 4c95 893d 4535 5c3d efea 113e
00000180: baef e03d 8dda 13bd 22f7 f5bd 7e8f 063e
00000190: f6ca 7bbd 95de 863c 3116 a8bd b20f 46bd
000001a0: 8f14 0c3e 1e01 03be 2d47 993d c914 e23d
000001b0: 7c37 4d3b dccf b5bd 7125 ce3d da0a db3b
000001c0: 3f32 51bc 2b05 c3bc 9058 ddbd 2b34 333d
000001d0: c2e5 3dbd d8b8 2abc 8d5b cebd 285e a1bc
000001e0: 3198 16bd 95e6 37bd 6cd3 f63d d045 083d
000001f0: c90c 20bd db27 4abd 3302 18bc da86 5e3d
00000200: 06c3 75bd 9853 863d 08be c0bd 333d d8bd
00000210: fe71 163e d0d6 963c d12b 65bd 8708 79bd
00000220: b072 553c 75dc 853c 44db 043e 599d 123e
00000230: 638e 173e 276c 3b3d 533a 8abd d4fc b03d
00000240: aa6b ff3d fa47 ebbd d036 bcbb f2a3 9cbb
00000250: 7930 99bd fbe9 a23d f291 f1bd 6e97 ba3d
00000260: 0136 9f3d f366 193d 846c 0a3e b1a5 eebd
00000270: fa5e bc3d 98dc 443c 4f21 d8bc 42d8 7fbd
00000280: 3375 56bc df0f 0e3e 825f 883d 8afc bf3d
00000290: 1a94 db3d e201 33bd 3ac8 ba3d 7c72 113e
000002a0: 23c1 d43d d527 fbbd 88e3 2f3d febe b33c
000002b0: 7488 643d aa02 a53d 8a26 1a3e 9fde 2d3e
000002c0: 340f 51ba 1eeb 73bd 3af4 283d cb0c c3bd
000002d0: b198 0b3e 8430 fabd 17a7 0e3e 7600 f53d
000002e0: 619e c1bd 83b9 973d 2da1 4bbd a728 0e3e
000002f0: f102 5bbc a4b8 1a3d 4e3e 203b 60b3 f0bc
00000300: 7a80 24bd 6d2e 993d 381d b43d e189 eabb
00000310: e2ed 103e e0bb 91bd 82b7 193e 1617 84bd
00000320: 8d6c 37bd d9db 8bbb eee5 0cbd 0ecc 8c3d
00000330: a10e 813d e1e8 64bd c94a 93bd 3a50 023e
00000340: 695f cfbc e915 683b aa74 103e 8637 fd3d
00000350: 1a60 353e 6022 a03e a0c9 093e c703 793d
00000360: 1a0f 77bd 20ce 003e 412e 3a3d 3c12 5d3d
00000370: c8d5 1c3c 9604 ed3d 90bf 8d3d 9876 993d
00000380: 9b1d 173e 4b86 81bd 9d35 c93d f34a be3c
00000390: 6494 043e 59dc 40bc 167e 8b3d 724e db3d
000003a0: 429c 063e dd61 9abc 43d8 133d 1585 fc3d
000003b0: d8bf 0ebe abf0 0cbd 569e 043e 9b3c 4cbd
000003c0: 805e 0c3e fc69 ff3d 9427 f2bd 4e96 473b
000003d0: 63b4 a53d 4156 be3b edd6 cd3d 24b1 c9bc
000003e0: 74b7 e63d ff0d 9c3c 242b 0c3e 856f 06be
000003f0: 5209 183d 14bf 2dbb 298e 653d e8ce 75bd
0.005318851 0.1128413 0.117295936 0.115521245 0.063996404 0.09278856 0.12117503 0.06952111
0.0028678905 0.03335144 -0.007501782 0.006294588 -0.011514378 -0.07240008 0.13424428 -0.05538754
0.13338225 -0.00011110457 -0.14784311 0.13027802 0.121682145 0.14982592 0.1678174 0.08024921
0.095686436 0.10096912 -0.036080655 -0.088633165 0.043980613 -0.11646422 -0.1099164 0.09991007
-0.00011772059 0.09031205 -0.13110922 0.13893789 -0.02016411 -0.025715997 -0.131154 0.061735135
-0.05773621 0.06949461 -0.007927841 0.12743299 0.042018462 -0.04140732 0.013756288 -0.08641702
0.14650263 -0.043310147 0.028402967 -0.0060620443 -0.00093814643 0.042721402 0.06501937 0.007997655
-0.056579687 0.062974475 -0.10125695 0.12502739 0.09439366 0.08720474 0.08365225 0.06210689
0.042966977 0.29624695 0.2679557 0.24851869 0.08087868 0.075498976 -0.0050519393 -0.13531706
0.11703391 0.04474774 0.13700712 0.009397513 -0.102450855 -0.06649255 0.0067262407 0.0026407153
-0.064167835 -0.076448455 0.11914055 -0.08251384 0.09432657 -0.018943064 -0.04552927 0.10990803
0.08901939 0.072808824 0.09718666 0.048786104 0.03267324 0.06717929 0.05376174 0.14249776
0.10983224 -0.0360971 -0.120100275 0.13140675 -0.061472856 0.016463557 -0.08207358 -0.048354812
0.13679717 -0.12793395 0.07484279 0.11039121 0.003131359 -0.08877537 0.10065735 0.006684643
-0.012768327 -0.023806175 -0.108079076 0.043750923 -0.046361692 -0.010420047 -0.10076056 -0.019698218
-0.036766235 -0.044897635 0.12052044 0.033269703 -0.039074693 -0.049354415 -0.009277868 0.054327823
-0.060000442 0.06558913 -0.094112456 -0.10558548 0.14691922 0.018412977 -0.05594999 -0.060799148
0.013027832 0.016340474 0.12974268 0.14317836 0.1480041 0.04575744 -0.06749406 0.08641973
0.12471707 -0.11488338 -0.005743839 -0.004780286 -0.074799486 0.079547845 -0.11795415 0.09110914
0.07773972 0.037451696 0.13517958 -0.11652697 0.09197803 0.012015484 -0.02638307 -0.0624621
-0.013089466 0.13873242 0.06658842 0.0937434 0.107216075 -0.043702967 0.091202214 0.14203829
0.103884004 -0.12263457 0.0429416 0.021941658 0.055794194 0.08057149 0.15053764 0.16979454
-0.0007974983 -0.059550397 0.041248538 -0.095239244 0.13632466 -0.12216285 0.13930927 0.119629785
-0.094540365 0.074084304 -0.049714256 0.13882695 -0.0133674005 0.037773743 0.00244512 -0.029382408
-0.040161587 0.07479558 0.087946355 -0.0071575497 0.14153245 -0.071159124 0.15011409 -0.06449716
-0.044781256 -0.0042681512 -0.034398966 0.06874858 0.06301618 -0.055886153 -0.071919985 0.12725917
-0.02531405 0.003541345 0.14107004 0.12364106 0.17712441 0.31276226 0.1345582 0.060794618
-0.060317136 0.1257863 0.045454267 0.053972468 0.009572454 0.1157314 0.06921303 0.07493323
0.14757387 -0.063244425 0.09824679 0.023229098 0.12947232 -0.011771285 0.06811158 0.10708322
0.13145545 -0.018845493 0.036094915 0.12330071 -0.1394037 -0.034409206 0.12951025 -0.049862485
0.13707924 0.12471387 -0.11823955 0.0030454579 0.08091047 0.005808622 0.100507595 -0.0246206
0.1126546 0.019049643 0.13688332 -0.13128479 0.037118264 -0.0026511597 0.056043778 -0.060011774

StatefulPartitionedCall/sequential_1/conv2d_5_1/convolution/ReadVariableOp:0 f4 [32, 16, 3, 3]
00000000: a2cf ac3b 4892 1bbe b18d 8cbc a74b 6b3d
00000010: eea8 1e3e 09bf 0e3e b6ac 243e 9acf 17bd
00000020: be00 02bd 3386 29bd 58f2 a73d 726f a7bd
00000030: 6d7b 683d 124a 16bd 2890 36bb df7b e5bc
00000040: 2a99 2b3d 806f 9dbd 46a6 5fbd bf7e 23bd
00000050: c834 e93c 58a3 373c 96c0 52bd 44b3 fa3c
00000060: ed02 ae3d 2878 edbc d400 efbc 814b de3d
00000070: 11aa 443d dfa0 00bd dc20 8db9 c609 ff3d
00000080: 89c0 9a3d 8e33 b5bd 8a72 06bd da31 e73c
00000090: 4d5d e43a eb18 d1bc 77e4 983d 6c15 e73d
000000a0: 888f 73bc dfce 9d3d 1a6d 5abd a569 003e
000000b0: b029 48bc bdf0 babd 5475 84bc 8e6b e9bd
000000c0: 08bb 05bd d4ca debd 9a81 e63c 1b6f f03d
000000d0: 20cb 523b e098 5b3c 2cb6 39bd 9dcc 033d
000000e0: 10f7 113d 9437 3c3d 5995 99bd 99e5 f03d
000000f0: d897 e23c 0f3d b53d 305c b23d 0aaf 2cbd
00000100: 10eb 06bd a82c 1d3d 04ba d43d b096 a33d
00000110: 0e26 623d 68aa f53c d6b0 91bd ebcb 143e
00000120: 1426 913d c688 2a3a 9351 743b 8042 0d3d
00000130: 83b5 4abd 6e7f c33d 4f20 a13b eaa8 b3bc
00000140: 604e 8b3c 41b0 25bd 393e 56bd a655 b8bd
00000150: 088f 5bbd 68e4 8fbd d8a4 053e 5e1e e73c
00000160: cd81 a13d c648 d83c 5b76 fdbc 84b8 933b
00000170: af4c eb3d f0e4 77bc c683 e63b 639e e83d
00000180: 8d85 95bc a160 9e3d 049d 30bc 0805 993d
00000190: 43e8 9abd 0ab0 4dbb 4410 9d3d 923e 9e3c
000001a0: 6a3a e23c c0fd 2a3d c4e5 c3bd c50f 2fbd
000001b0: 7254 3d3d 89b1 733c 4291 4dbd e247 52bd
000001c0: e721 8b3d b28a d13d 7020 f23d e96c b9bd
000001d0: dd14 613d 6d24 cfbd be58 88bc dbf5 903d
000001e0: 3576 d1bc ed84 833d 5b89 be3c 8aee adbd
000001f0: 7258 853d 5848 febc 3cfa 9c3d 315f a63c
00000200: 75d2 963b 3d06 8e3c afbd acbd e565 e6bc
00000210: 2d1e 4bbd b1d5 af3d 8b52 47bc 0a79 c43c
00000220: ab7b 0a3e 5670 c2bd ef8d 3c3d d91d fa3d
00000230: ad84 aabd 19f9 8f3d 7699 813d df4c 193d
00000240: 7c38 e4bd 8e98 81bd b76a 2e3c 538f bc3d
00000250: 490b 2b3e e84e 2b3e 98ae 10bd bba7 043d
00000260: 40e0 debc 0aab ff3d 48ce 2cbc 9223 a53d
00000270: 9462 02bd 3dfd 31bc 3c20 8b3d e5e0 b4bd
00000280: 1fb7 a63d 40c9 cb3d f4dc ab3b 86f5 cfbd
00000290: 0b80 9e3d 4000 5e3d 1370 8bbd 3d29 663d
000002a0: 8dbd 953c c755 0fbd a401 2b3c fd0b 1cbd
000002b0: fd7a d9bc ffc4 9bbc e209 d03d ba8d 5d3d
000002c0: 1e6b a5bc ff3f e23d 44bb 073d 85a2 b53d
000002d0: 3945 b23d 5ffa 68bc 59f5 b0bd b869 ef3d
000002e0: 88b5 c03d 917c 24bd a168 df3d efc2 32bd
000002f0: 3d20 243b 39f5 4b3d 7acc 94bd a7bc 6f3d
00000300: fb21 053d aafb 593d 9547 b03d 1775 98bb
00000310: 5d96 ce3d aecf 83bb 8575 e03d d8bb 0a3d
00000320: 1607 0bbd a913 d238 cd29 56bd 05f0 3e3e
00000330: 56a8 89bc f19a 193d 2ae5 743d c58a 8d3d
00000340: db57 793c da71 373e 898c 85bd e360 2c3e
00000350: cc6a b93d d042 c1bc 148b c53c 11b4 723e
00000360: 0f13 f2bb 827e 73bc 2b58 0f3c 6de5 75bd
00000370: 25e2 c13d 8fc0 713c a375 a43d 40ed f03d
00000380: 0cc0 143e 4f8c 513d 072d ac3c e3b4 103d
00000390: 1c65 b0bd 0ade 013d 504b 94bd 448b c5bd
000003a0: fd96 ae3d 3e8a 78bb 4f76 d53d 2c93 cebc
000003b0: c98d b4bd 76a4 363d a3e0 1ebd 91fa 803d
000003c0: c8d7 05bc bfef ce3c 6171 d23d b9a0 f8bc
000003d0: f994 d4bd 03e8 363d b2bd 78bd 9540 e83d
000003e0: 7a21 84bd 9d0f 76bd 0fee a73d 80a2 5a3c
000003f0: 9ed2 07bd 6bbc 96bd 188c 78bd cc01 293d
0.005273775 -0.1519252 -0.017157407 0.057445195 0.15494129 0.13940062 0.16081509 -0.03706322
-0.03173899 -0.041387748 0.0820052 -0.081755534 0.056758333 -0.036691733 -0.002785692 -0.028013168
0.041894116 -0.076872826 -0.05460193 -0.039915796 0.02846755 0.011208378 -0.051453196 0.030603059
0.08496652 -0.028987959 -0.0291752 0.10854245 0.04801375 -0.03140342 -0.00026918098 0.12453036
0.075562544 -0.08847724 -0.032824077 0.028222013 0.0017422825 -0.025524577 0.07465451 0.11283383
-0.0148657635 0.07705473 -0.053326704 0.125403 -0.01221697 -0.091279484 -0.016169228 -0.113974676
-0.03264907 -0.1087853 0.02813797 0.11739942 0.003216453 0.013403147 -0.04533975 0.032177556
0.035636008 0.04595144 -0.07499189 0.11762542 0.027660295 0.08849537 0.087089896 -0.042159118
-0.032939017 0.038372666 0.10387042 0.07987726 0.055212073 0.029988483 -0.07113807 0.14530914
0.07087341 0.0006505366 0.0037280067 0.034487247 -0.04948951 0.0954579 0.0049171816 -0.02193113
0.017005146 -0.040451292 -0.052305434 -0.09000711 -0.053603202 -0.07025987 0.13051164 0.028212722
0.07886086 0.026401889 -0.030940225 0.00450808 0.114892356 -0.015130267 0.0070347516 0.11358335
-0.018252159 0.07733274 -0.010779623 0.07471663 -0.07563832 -0.0031385445 0.07669118 0.019316945
0.027615745 0.0417459 -0.09565309 -0.04273965 0.04622311 0.014873871 -0.050187357 -0.051338084
0.06793576 0.10231532 0.11822593 -0.09053976 0.054951537 -0.101143695 -0.016643878 0.07078143
-0.02556906 0.06421838 0.023258856 -0.08492763 0.0651101 -0.031040356 0.07664916 0.020309063
0.004602725 0.017336959 -0.08434617 -0.028124759 -0.049589325 0.0858568 -0.012165676 0.023983497
0.13523738 -0.09494083 0.046033796 0.12212724 -0.08326087 0.070299335 0.063280985 0.037426826
-0.11143586 -0.063279256 0.01064556 0.092070244 0.16703524 0.16729319 -0.035322756 0.032386523
-0.02720654 0.12483795 -0.010547228 0.08063425 -0.031832293 -0.010863599 0.067932576 -0.08831958
0.08140396 0.09950495 0.0052448455 -0.10154252 0.07739266 0.054199457 -0.06808486 0.05619167
0.018278861 -0.034993913 0.010437403 -0.03809737 -0.026547903 -0.019014833 0.10158135 0.05409024
-0.020192679 0.110473625 0.033137575 0.08868889 0.087046094 -0.014219849 -0.08640546 0.11690086
0.09409624 -0.04015786 0.10908628 -0.043642934 0.002504363 0.04979441 -0.07265563 0.058529522
0.03250311 0.05321852 0.08607403 -0.00465263 0.10087273 -0.00402256 0.10959915 0.033870548
-0.033942305 0.00010017242 -0.052285958 0.18646248 -0.016803902 0.03750128 0.05978886 0.06911234
0.0152187 0.17914525 -0.065209456 0.16833834 0.09053573 -0.023591429 0.02411417 0.23701502
-0.007387526 -0.014861705 0.008749048 -0.06003325 0.09466962 0.014755382 0.0803025 0.11764002
0.14526385 0.0511592 0.021017564 0.035328757 -0.08613035 0.031705894 -0.07240927 -0.096457034
0.085248925 -0.0037924196 0.10422956 -0.025216661 -0.08816106 0.044590436 -0.03878845 0.06297792
-0.008169122 0.025260804 0.102755316 -0.030350076 -0.10379977 0.044654857 -0.060727783 0.11340443
-0.06451698 -0.060073484 0.08199703 0.013344407 -0.033159845 -0.073601566 -0.06068048 0.04126148

StatefulPartitionedCall/sequential_1/conv2d_5_1/Squeeze:0 f4 [32]
00000000: fd62 553c c767 433c 0327 af3c b169 26bc
00000010: 0bc9 143c b5bf 69bc 26a6 4c3c c1f8 f2bb
00000020: f78e 59bc 6661 5e3c d8b7 4e3c 2b2f 2a3c
00000030: 8e46 1ebc f8ee 36bc 4e6a 63bc 6b79 5a3c
00000040: d27d 43ba 4b34 523c abb4 493c 6d01 ae3c
00000050: 2981 2d3c 0696 6b3c 8a42 5cbc 7347 253d
00000060: 3b99 f63b 7566 553c 6247 8cbb 996b 403c
00000070: b4aa 47bc d8c1 5a3c 26a6 173c f437 053d
0.013024089 0.011926598 0.021380907 -0.010157035 0.0090811355 -0.014266898 0.012490785 -0.0074149077
-0.013278714 0.013573026 0.012617074 0.010387222 -0.009660376 -0.011165373 -0.0138803255 0.013334612
-0.00074574084 0.01282985 0.012311141 0.021240914 0.010589876 0.01437903 -0.0134435985 0.040351342
0.0075255907 0.013024916 -0.0042809704 0.011744403 -0.012186695 0.01335188 0.0092559215 0.032524064

StatefulPartitionedCall/sequential_1/conv2d_4_1/convolution/ReadVariableOp:0 f4 [16, 8, 3, 3]
00000000: 7667 69bd bc1d d03d b659 1bbe 5d8c ab3d
00000010: 272b 89bd 0b66 513e 414c da3b b551 573e
00000020: 74a4 1abd cce3 20be 1899 ef3d e40f 9cbd
00000030: 63ca f33d 038e 243e ef01 6dbd f76b a5bd
00000040: bf47 dfbc 7b3f 13be 4b8f 8b3d d7b7 9f3d
00000050: d17e dc3c 65e2 d43d db63 93bd 8390 08be
00000060: 8730 393c 0160 283d e4eb ea3d f1ee 19bd
00000070: 0444 153d 9b5f a5bc 7384 16be 8e45 bd3d
00000080: 37d9 84bd 76ed a0bd e387 2cbe c56b 35be
00000090: e81f 08be 4e41 d13d 61f1 e5bd c21d bfbb
000000a0: 3cf8 8dbd 4eac 86bd c0bf d93d 8dbb a13d
000000b0: 0df5 293e 11ec 31be b2bc 92bd 6698 fcbd
000000c0: e6c8 da3c 5947 393e 4b7d 11bb 85d1 5d3e
000000d0: e8b2 913c dde6 083c d633 69bd 617c a9bd
000000e0: 5078 dc3c 7ad3 b6bd a618 b7bd fd14 033e
000000f0: 36bd 8d3c cfff b8bc 3867 0e3e c1de e0bd
00000100: cca6 86bd b17e 2fbd 670f 06be 5b15 02be
00000110: ce78 193e f019 d73d 9935 943d 7eef f5bd
00000120: be32 25be 8792 063e 0775 06be 9c6d 7ebd
00000130: 5270 91bd fd9f 113e 0a3c 5c3d e9c9 163d
00000140: ff97 c5bd 0596 1cbe 8198 8fbd adfa 14bd
00000150: ad72 dcbd 734f e33d be38 cabd 5259 9abc
00000160: e077 3d3d 7f47 26bd cb6f 693d de64 413c
00000170: 908e 0f3e ac92 d3bd c8a9 88bc 1220 04be
00000180: 0a97 923d 7e27 573d 7cb6 b9bc 5dc8 683d
00000190: a5d7 20be 1315 d6bc b51b af3d 1ae9 63bc
000001a0: f05c a5bb 7eda 833d 4dae a7bd 354f 1abc
000001b0: e396 68bc 20ca e3bc 0204 19be 68e2 66bc
000001c0: 9d3e 57bd bd90 f83d cefe 153d 26ca 17be
000001d0: 41b1 18be 9242 b63d a6f4 8cbd f47f 5fbc
000001e0: bc37 18bd 813e c53d 86a0 dd3d a6a8 f0bd
000001f0: f212 d4bd 21a8 933d 31d2 1b3e d24c 5e3d
00000200: e4d6 9cbd a86c 943c 6d52 19be a8a9 ffbd
00000210: 6070 acbb 0a6a 8ebd c47f 01be 30eb 99bd
00000220: 318f a2bc 69d5 f03d 8839 5b3d 05b8 2c3d
00000230: 554c 993d c4bc 13be cf98 273d 7676 c4bd
00000240: e785 033e 1515 923d 46a4 3e3e 6a14 b43d
00000250: 982a aebd 073f 0ebe 9a78 ffbd e73c 6e3d
00000260: da27 633c 4dc4 103e fa14 103e 299b ca3d
00000270: 2232 ccbc 2bdc 073e ebe8 ae3c 6016 69bc
00000280: e0d9 273d 5340 48be 700c 12bd b497 2a3e
00000290: 70b1 a2bd feb1 153e 3f66 aebd b292 bc3d
000002a0: 6bd2 bc3d 2079 f8bd 2f45 aa3b 34d3 4abc
000002b0: eaf7 603d a89c 803d 9c54 943d a0cd c03d
000002c0: 9ed3 b23d 035e 693c 619b cc3b 4e56 c2bd
000002d0: c4e9 48be 8c23 cd3d 622b 9a3c b703 083e
000002e0: 614f cdbd 7efc 1e3d f310 fc3c 9a7f 6e3d
000002f0: 7721 31bd 6d28 0d3e 1002 e7bd 56ec c83d
00000300: 8c1b 1abe f4da d6bc 7171 1c3d 02f8 6d3b
00000310: 5a14 fe3d 248f a53d 1499 013e 13db 3fbd
00000320: 0dc6 c8bd 2e43 9abd fcda 393d 6ec2 fcbd
00000330: 2aef 10be 21ce 17be 7040 c6ba 972e 05be
00000340: 52c4 9d3d acfc 9fbb b7e3 3dbd b241 2c3d
00000350: 9917 203e d6a5 bdbd 05c6 09bd 4805 133e
00000360: 1437 963c 4472 143e 4d99 40bd 1b2c dbbd
00000370: 8353 8e3d 6f7d ec3d d4c3 d5bd 148a 1d3e
00000380: cc20 8d3d 18a0 afbb 4046 c73d 9081 303d
00000390: ab55 6ebc cbc6 32bd 75e9 86bd a99c 1a3e
000003a0: 8bdb a23d 3dac 5fbd 4836 2abe 2c52 37bd
000003b0: c00c 5d3d 9699 8cbd 908f 8cbd 80cc 04be
000003c0: 9fcb c83d 4ead d0bd 71d0 20bd dc68 eebd
000003d0: a6b4 c1bd 85c9 26bd 22b2 c6bd e7dc f7bd
000003e0: 2a66 7a3d 4dd7 13be 9f13 12be 0c8a 99bd
000003f0: bced d23d 6ad9 41bd 4a03 abbd 833e fc3d
-0.056983434 0.101619214 -0.15170941 0.083763815 -0.06697684 0.20449083 0.006661922 0.21027263
-0.03775449 -0.15711898 0.11699122 -0.076202184 0.119038366 0.16069798 -0.057863172 -0.08077233
-0.02725589 -0.14379685 0.0681444 0.077987365 0.02691594 0.10394744 -0.0719678 -0.13336377
0.011303074 0.04110718 0.11470774 -0.037581388 0.036441818 -0.02018719 -0.14698963 0.09241782
-0.06486743 -0.07857792 -0.16848712 -0.17716892 -0.13293421 0.10217534 -0.1122768 -0.005832405
-0.069321126 -0.06575833 0.106322765 0.078971006 0.16597386 -0.17375208 -0.07164897 -0.12333755
0.026707124 0.18093623 -0.0022199925 0.21661957 0.017785504 0.008355823 -0.0569342 -0.082756765
0.026912838 -0.08927055 -0.08940248 0.12800975 0.017302137 -0.022582917 0.13906562 -0.10979987
-0.06574783 -0.04284543 -0.13091813 -0.12703459 0.1498749 0.10502994 0.072367854 -0.1200857
-0.16132638 0.13141833 -0.1313058 -0.06211625 -0.071015015 0.14221187 0.053768195 0.03681365
-0.096481316 -0.15291603 -0.0701151 -0.036371876 -0.1076406 0.11099138 -0.09874104 -0.01884142
0.0462569 -0.040595528 0.05699138 0.011803834 0.14019227 -0.1033071 -0.01668252 -0.12902859
0.07157715 0.052527897 -0.022670023 0.056831706 -0.15707262 -0.026133096 0.085502066 -0.013910556
-0.0050464794 0.064381585 -0.08187542 -0.0094182985 -0.01419613 -0.027806342 -0.14942935 -0.014092065
-0.052549947 0.12136982 0.036619954 -0.14823207 -0.14911367 0.08899416 -0.068826005 -0.013641346
-0.037162527 0.09631062 0.10821633 -0.11750917 -0.10355176 0.072098024 0.152169 0.05427248
-0.07658175 0.018118218 -0.14972849 -0.12483531 -0.0052624196 -0.06953819 -0.12646395 -0.075155616
-0.01984367 0.11759455 0.053521663 0.042167682 0.07485262 -0.14427477 0.040917214 -0.09592907
0.12844048 0.07132927 0.18617353 0.08792956 -0.08504218 -0.1389123 -0.12474175 0.05816355
0.013864482 0.14137383 0.14070502 0.09892876 -0.024926249 0.13267581 0.021351298 -0.014226526
0.040979266 -0.19555788 -0.035656393 0.16659433 -0.07944 0.1461868 -0.08515596 0.092076674
0.092198215 -0.12132478 0.0051962356 -0.012379456 0.05492393 0.0627988 0.072427005 0.0941422
0.08731769 0.014243606 0.0062441085 -0.094891176 -0.19620425 0.10016546 0.018819515 0.13282667
-0.10024906 0.038815014 0.0307698 0.05822716 -0.043244805 0.13784952 -0.1127969 0.098107025
-0.15049571 -0.026227452 0.038194124 0.0036311154 0.124062255 0.080839425 0.12656051 -0.046839785
-0.098034 -0.07532345 0.045374855 -0.12341772 -0.14153734 -0.14824726 -0.0015125405 -0.13006054
0.07703461 -0.0048824158 -0.046359744 0.04205484 0.15634002 -0.09260146 -0.03363611 0.14357483
0.01833681 0.14496714 -0.0470212 -0.10701772 0.06949522 0.11547362 -0.10437742 0.15384704
0.06891021 -0.005359661 0.09730196 0.04309231 -0.014546792 -0.043646615 -0.06587497 0.15098824
0.07952031 -0.05460762 -0.16622269 -0.0447561 0.053967237 -0.06865232 -0.0686332 -0.12968636
0.09804463 -0.10189305 -0.039261285 -0.11641094 -0.09458284 -0.040719528 -0.09701945 -0.12102681
0.061132587 -0.144376 -0.14265297 -0.074970335 0.102992505 -0.047326483 -0.08350237 0.12316611

StatefulPartitionedCall/sequential_1/conv2d_4_1/Squeeze:0 f4 [16]
00000000: 9718 3d3c 68dd 5abc 05ca ec3b ceb3 b43b
00000010: 324e 163c 4178 53bc 28cf 67bc dff0 5e3c
00000020: a9ef ae3c 5b95 92bc c146 243c ae5c 093c
00000030: 4d93 0f3c b0bd 44bc 4259 943b 46c3 24bc
0.011541507 -0.013358451 0.007226231 0.0055145985 0.009173917 -0.012907089 -0.014148511 0.013607233
0.021354513 -0.017893484 0.010026635 0.008383913 0.008763147 -0.012008116 0.004527242 -0.010056322

StatefulPartitionedCall/sequential_1/conv2d_3_1/convolution/ReadVariableOp:0 f4 [8, 8, 3, 3]
00000000: 4ccb 3cbe b674 13be 123b 483d 626d c53c
00000010: 145b 183d 9ea7 2bbe b34a 3c3e 4479 32bd
00000020: 8c86 423e 5f40 b43d 3ba1 1dbc e190 16be
00000030: 4c5f 3a3e fe8f c73d 0a08 d53d 7bf4 64bd
00000040: ea44 593d e86b e73d 3c9f 3fbe 3fae febd
00000050: f89e 3fbe 9662 553e 83a9 5b3d 8ccd cd3d
00000060: 4c91 ce3c a610 31be 1253 2d3d 90a0 14be
00000070: 122f 41be d666 323d fe18 393e a90c 093e
00000080: 97f3 71bd cc6d 17be bd1e 293e 8770 523e
00000090: bfec d9bd c900 01bd dfac fa3d 0467 0ebe
000000a0: 15f0 243e e7db 833d 5b1c edbd 11f3 ae3c
000000b0: 0146 90be a1d1 88bd 55bc 55bd a7fb 8cbc
000000c0: 7e1b d23d f583 20be 9825 e2bd 3bef 10be
000000d0: 57c9 0abe 6bda f5bc f48b 133e 70d3 81bd
000000e0: 5aa9 ecbb 6c7f 53be 7045 833c 1eb6 883d
000000f0: d73d ab3c 6e37 afbd 0b34 67bb 555b 203e
00000100: 093c 543b ba07 953c 78c2 37bd 8a74 ec3d
00000110: 0e4b 57bb 66b5 bdbd 5d45 7abd 11b8 43bc
00000120: 5d61 e4bd 9366 08be 9028 c03d 8ce0 f3bd
00000130: d08d 5d3e 954c 5ebd 3cab 2fbe 1e04 123e
00000140: 6937 b13c f7ce 0ebe ea4f 06be 224c 44be
00000150: b299 13be 5667 513e f597 cabc d46b 38be
00000160: ffbe 8e3d 9c38 273e f2b1 1bbe 1101 673c
00000170: 8d36 50bd 7711 1cbd 1131 f73d 9f10 13be
00000180: 7801 2dbd 921e 00be b73d 1c3e 8ee9 80bd
00000190: fb5f de3d 2a74 16be d479 91bc ffc6 08be
000001a0: d3ed 4dbd 6806 5d3e 2a44 2d3a 7c7c b1bc
000001b0: 8acb 71be 44e9 cabd ec38 813b e474 663e
000001c0: 1389 043e 8e9b 863e 6d8f b4bd 1161 3dbd
000001d0: 1cc8 4cbd e9be d13d f04d ca3d f7f9 18be
000001e0: 4943 d9bd 0c59 a4bd a25d 733c ad1e acbd
000001f0: f33f 83bd cf44 323e ff1d 373c 54f9 6b3d
00000200: 1c20 973d dc20 bdbd 00e0 3fbd cb4e 9cbd
00000210: ed19 09bd d560 c4be 0718 27be b506 b73c
00000220: 6bad fb3d e4e8 263e d091 8e3c 36b6 623e
00000230: 0e68 80bd 1da1 113e 0989 043e d655 e2bd
00000240: 603d 37bc 0624 d3bd 0bb0 c03a b0f0 59bd
00000250: 340d d3bd 8e66 283e 40c4 a3bc 003e 0ebb
00000260: f0e3 5b3c d8e9 7fbd 7788 bdbd 5027 dbbc
00000270: c0be 11bb 7c9d ee3d d532 50be 4a20 483e
00000280: 4c2f 77bd 5abb 8dbd 34d7 12bd d3de 01be
00000290: 8cae a63d 2c48 8d3d 38f2 ff3d 08e8 57bd
000002a0: 9421 a43d 3610 2b3e 2ce6 373d 60d9 653d
000002b0: 2d06 303d 1fd3 18be 40ad 363d 636d 2cbe
000002c0: 4da2 1cbe 28d9 893d b212 27be 18a1 1abe
000002d0: a06c 353e 60a2 b4bd 8e61 66bd a03b 0f3e
000002e0: 727f 22ba dd3f 44bd d281 0a3e 24c0 143e
000002f0: a6e9 323e 70ba 5c3c dc2a 26bd d422 943d
00000300: ede1 c4bd 65b5 1a3e 8e88 343e 62fa 1b3e
00000310: 1017 6a3d ea35 25be 3083 a53c 2a92 b63d
00000320: 68d1 c03c a5f5 14be 1dc5 893d 0f51 4fbd
00000330: c0e9 efbb a8e4 b2bd 0012 3e3d 64d2 38bd
00000340: 84e6 153e 99b3 113e 6d76 abbd bfce 003d
00000350: 47bf 63be 8cba 7fbd e2b4 90bd 00c0 ce39
00000360: 04a2 4e3e a4f1 8cbc c338 463c b278 da3d
00000370: ca33 2fbe d569 ae3c 08a5 cbbd 0f21 83bd
00000380: 4eb2 003d d81c 0c3d 9bee 45be 603c dabb
00000390: 3b6d 48be 5658 de3c 988d 373e 599c 393e
000003a0: 6d86 383d 7846 2f3e 903c 2f3d a493 013e
000003b0: a060 383c b4fb 34be 2742 a33d dcff 3d3e
000003c0: 5274 69bd 2d3f 693d 06af ee3d f397 26be
000003d0: b138 38be 0335 43be 607f 16bd d164 eabc
000003e0: 6354 283e 234d d43d eec4 12be 61eb 20be
000003f0: e676 323e a998 613e 13ff 8abd b715 07bd
-0.18436927 -0.1439999 0.04888446 0.02410001 0.037196234 -0.1676316 0.1838787 -0.04357268
0.18996638 0.0880134 -0.00962096 -0.14703704 0.18200415 0.09744261 0.10401924 -0.055897217
0.053044237 0.11299878 -0.18713087 -0.124355786 -0.18712986 0.20838389 0.053628456 0.100489706
0.025215767 -0.17291507 0.04231555 -0.14514375 -0.18865612 0.043555103 0.1807594 0.13383736
-0.059070196 -0.14787978 0.16515632 0.20550738 -0.10640859 -0.03149489 0.12240004 -0.13906485
0.16107209 0.064384274 -0.11577674 0.021356137 -0.2817841 -0.066806085 -0.05218156 -0.017209841
0.1025915 -0.15675338 -0.11042327 -0.14153759 -0.13553368 -0.030011376 0.14408857 -0.06339157
-0.0072223367 -0.20654076 0.016024321 0.06675361 0.020903511 -0.08555494 -0.0035278823 0.1565984
0.0032384417 0.01819216 -0.044863194 0.115456656 -0.0032851133 -0.09263115 -0.061101306 -0.01194574
-0.11151383 -0.13320379 0.09382737 -0.11908063 0.21636128 -0.054272253 -0.17155164 0.14259383
0.021632867 -0.13946138 -0.13116422 -0.19169667 -0.14414099 0.20449576 -0.024730662 -0.18009883
0.06970023 0.16330189 -0.152046 0.014099375 -0.050833274 -0.038102593 0.120699055 -0.14361809
-0.04223773 -0.12511662 0.15257917 -0.06294547 0.108581506 -0.1469275 -0.017758287 -0.13357161
-0.050275635 0.21584475 0.00066095835 -0.021665804 -0.236128 -0.09907773 0.003943553 0.22505528
0.12942915 0.26290554 -0.08816419 -0.046235148 -0.049995527 0.10241491 0.09878147 -0.14939104
-0.10608537 -0.08024797 0.014853867 -0.084042884 -0.06408682 0.17409061 0.011176585 0.057610825
0.07379171 -0.09234783 -0.046844482 -0.07632216 -0.03347199 -0.38355127 -0.1631776 0.022342065
0.12288936 0.16299778 0.017403513 0.2213982 -0.06269847 0.14221616 0.129429 -0.11051528
-0.0111840665 -0.10309605 0.0014700902 -0.053208053 -0.10305253 0.16445372 -0.01999104 -0.0021704435
0.013421044 -0.06247887 -0.09254544 -0.026752144 -0.002223894 0.116511315 -0.20331891 0.19543567
-0.06034784 -0.069205 -0.035849765 -0.12682657 0.08138761 0.06898531 0.124973714 -0.052711517
0.08014217 0.16705403 0.044897243 0.056115508 0.04297464 -0.14924286 0.044598818 -0.16838603
-0.15296288 0.067308724 -0.16315725 -0.15100515 0.17717218 -0.08820033 -0.05624538 0.13987589
-0.00061988004 -0.047912467 0.13526085 0.14526421 0.17471942 0.013472185 -0.040568218 0.072332054
-0.096134044 0.15108259 0.17630216 0.15232232 0.0571509 -0.16133848 0.020204157 0.08914597
0.023537353 -0.14546831 0.067270495 -0.050614413 -0.0073215663 -0.08735019 0.046403885 -0.04512252
0.14638716 0.14228667 -0.08372197 0.03144717 -0.22240935 -0.062433764 -0.07065751 0.00039434433
0.20178992 -0.017205067 0.012098494 0.10667552 -0.171096 0.021290699 -0.099435866 -0.0640279
0.031420045 0.034207195 -0.19329302 -0.0066600293 -0.19572918 0.027141731 0.17925107 0.18126048
0.045050073 0.17116725 0.042782366 0.12653977 0.011253506 -0.17674142 0.07971602 0.18554634
-0.056995697 0.056945015 0.11654477 -0.16268902 -0.17990376 -0.19063191 -0.036742568 -0.028612526
0.16438441 0.10366275 -0.14332935 -0.1571479 0.17428169 0.22030891 -0.06786933 -0.032979693

StatefulPartitionedCall/sequential_1/conv2d_3_1/Squeeze:0 f4 [8]
00000000: 2f8b 053c d770 a239 33ec 00bd 3311 94bb
00000010: e1b0 153a 18de f73b 082a 03bc b704 0c3c
0.00815086 0.0003098312 -0.031475257 -0.004518652 0.0005710256 0.0075643174 -0.0080056265 0.008546046

StatefulPartitionedCall/sequential_1/conv2d_2_1/convolution/ReadVariableOp:0 f4 [8, 16, 3, 3]
00000000: 9d89 1c3e 1e0a ad3c b342 ff3d 3de8 0a3e
00000010: c851 aebb 8151 133c 1673 7f3d 8489 8e3d
00000020: 9d8c fbbd 24ac 36bd 58dc b43d eccd f43d
00000030: 3f1f 213e 0186 72bc 44d5 b63d fd2b db3c
00000040: ee27 6cbd 4277 57bc f67a a438 5121 d73d
00000050: 77d2 183e b29f 0ebd ae95 a93d 937c 8dbd
00000060: 7dc8 6d3d 9d4f 35bd 8e1f 0d3c 15ff c4bd
00000070: 2611 6f3d 9187 36bc 4623 0e3e 5367 1e3e
00000080: 64ba a8bd e12c e73d d0e8 dc3d 5925 5e3d
00000090: 1656 be3c 764e 26be 16ba e63d 8aa7 6fbd
000000a0: cd29 633d 405d 8dbd 363e 00be 6c6e b13a
000000b0: 7af2 11be 6160 d33d 17a6 ea3d f9de 1d3e
000000c0: 0e7f aa3d b50a d1bd 7adf a53d dca2 933d
000000d0: 7919 073e 933d b43d 9385 29bd 7672 723c
000000e0: 7fb8 bebb a014 6d3d abf8 153e 00c5 efbd
000000f0: c6fa 9c3d 7649 c0bd d64b b73d 46f7 da3d
00000100: 3df6 8c3c 28cb 273e eefb 173d 6dd2 70bd
00000110: 97bc 0abd eac7 e63c c236 6d3d 2ece 07be
00000120: 0b04 b53c a0c6 23bd f07e debd 7745 10be
00000130: ccf1 a03d fda2 45bd 59ba 1ebe 1e57 9fbd
00000140: abe6 0ebe 650c d73c 3d64 073e 0958 883d
00000150: af59 06bb ef7e e1bd 8914 1fbe dd60 fcbd
00000160: 0724 08bd 1fea c2bd 6570 ebbd d388 32bd
00000170: 74e9 d63d 72fb 99bd 91e0 e6bd 46fd e13c
00000180: d722 cb3c fd77 0abe 569e de3d 5e1a 4e3b
00000190: e12b 98bd ea01 f73d be51 273e 8a11 c43c
000001a0: 28eb 9b3c 2cb6 0a3d a82e 8c3d a8dd f5bd
000001b0: b2c8 b43d db84 09be 84e8 ac3d 2817 c0bd
000001c0: d852 e1bd b8bb 19be 52c1 e8bd 0636 203e
000001d0: f669 84bd bdb9 c73d f4de aabd 70ae 1cbd
000001e0: e607 913c 4209 12bd 7c7a da3d 0c72 fabd
000001f0: 33b2 053c 8718 babd 401b a7bd 2819 debd
00000200: 2155 cd3b f1e1 8a3c 832c d2bd c188 be3d
00000210: 15fe de3d c852 f9bc 792e bcbd 9973 98bb
00000220: 6a0c d2bd da1a d3bd bf1d a33d 5ffb a5bb
00000230: 8b1c c43d fa60 8ebd 983d 06be 58d5 8fbd
00000240: 67d0 883d 083f 0c3e a8b7 11be 0f01 d0bc
00000250: e942 973d 4d88 79bd 7485 2ebe 036a acbd
00000260: 3679 18be 3bc9 24be 9ff4 10bd c2ff b7bd
00000270: 0d74 f2bd b285 05be 23b2 883d 0b80 773d
00000280: 3015 5e3b acb5 283e 055d ab3d e069 bc3d
00000290: 2811 13bd 9918 febd 46df ea3d c75d 0bbe
000002a0: 916c eb3c 8b58 533c 1247 ab3d af83 f5bd
000002b0: 3507 afbd ab50 afbd 3d01 af3d 0813 07be
000002c0: 8fd4 813d df7b a43d 27d8 f63d 2428 693d
000002d0: 7ce2 8d3d 4041 e4bd a0eb 84bb 6792 c0bc
000002e0: 901e 673d e013 193d f3d6 debd 830a e93c
000002f0: 9af9 9abd 8d81 f0bd 5099 173e 503e 0bbe
00000300: c4ea db3d 6640 853d 5935 7d3d 711a cdbd
00000310: 8c5a 10be 7238 2e3c bb24 f2bd ed5f 1f3e
00000320: bb5f 00be e8f7 98bd 10e4 b5bd 9617 e13d
00000330: e95c 0e3e 68c0 1abe 3659 c9bd 1de0 ba3d
00000340: b444 e6bd 0fea d03d ec40 223d cfc0 0ebe
00000350: e953 e4bd 0c55 4fbb f74c 14be 748a 10be
00000360: 448c 5f3d f2f8 e0bc 5181 c83d 5c6f 153e
00000370: 0a50 103e 029e 1abe 609d 65bb 4edc 4dbc
00000380: 9830 1e3e 6c1b c5bc 9a94 b93c a753 263e
00000390: b80f 093e cf3c 963d 7cb6 86bd 841f 0e3c
000003a0: 3f21 9fbd 127f 1d3e 5e7f 8b3d 4b4b b2bd
000003b0: 23b4 e6bd dfcc ea3d 1edd 94bd 6295 f3bd
000003c0: e5f4 ae3d b32e 87bd 38fb 043d cc1f 513d
000003d0: 6fa4 143e 3358 85bd 7736 1bbe 8e70 ccbd
000003e0: 61b6 1ebe 87b2 5c3d 21d5 cebd 6dad fc3d
000003f0: c644 fd3d c3cb debc 7b4c 56bc 0028 0a3e
0.1528687 0.021122988 0.12463894 0.13565154 -0.0053198077 0.0089916 0.062365614 0.06959823
-0.12282679 -0.04459776 0.0883109 0.11953339 0.15734576 -0.014802457 0.08927396 0.026754374
-0.057655267 -0.013150992 7.843033e-05 0.105044015 0.14924036 -0.034820266 0.08280502 -0.06908526
0.05805253 -0.04426538 0.00861348 -0.096189655 0.058365963 -0.01114072 0.13880643 0.15469103
-0.08238676 0.11287857 0.10786593 0.054234836 0.023234408 -0.16240868 0.11265962 -0.058509387
0.055459786 -0.06902552 -0.12523732 0.0013536937 -0.14252654 0.10321117 0.114574604 0.15417089
0.08325015 -0.1020712 0.080992654 0.07208797 0.13193311 0.08800807 -0.041387152 0.014797797
-0.0058203335 0.057880998 0.1464564 -0.11707497 0.07665019 -0.093890116 0.089500114 0.10691695
0.01720726 0.16386092 0.037105493 -0.058794428 -0.03387126 0.028171498 0.05791355 -0.13262245
0.022096654 -0.039984345 -0.10864055 -0.14088999 0.07858619 -0.04825114 -0.15500773 -0.07780288
-0.1395518 0.026251027 0.13221832 0.066574164 -0.0020500233 -0.11010539 -0.15535177 -0.12323163
-0.033237483 -0.09517311 -0.11496047 -0.043587517 0.104937464 -0.075186625 -0.112733014 0.02758659
0.024796886 -0.13522334 0.10870044 0.0031448822 -0.07430244 0.12060912 0.16339776 0.023934145
0.01903303 0.03386514 0.068448365 -0.12005168 0.08827342 -0.13429587 0.08442786 -0.09379417
-0.11002129 -0.15013015 -0.11364998 0.15645608 -0.06465523 0.09752224 -0.08343306 -0.038252294
0.017703962 -0.03565336 0.10667893 -0.12228784 0.008160162 -0.090867095 -0.081594944 -0.10844642
0.0062662517 0.01695344 -0.10262396 0.093034275 0.10888306 -0.030434981 -0.091885515 -0.004652452
-0.10256274 -0.10307856 0.07964658 -0.005065366 0.09575757 -0.069520906 -0.13109434 -0.07023114
0.066803746 0.1369592 -0.14230216 -0.02539113 0.07385809 -0.060921002 -0.17043096 -0.08418658
-0.14889988 -0.16092388 -0.03538954 -0.08984329 -0.11838541 -0.13039282 0.06674602 0.060424846
0.003388714 0.16475552 0.083673514 0.091998816 -0.035905033 -0.124070354 0.11468367 -0.13609992
0.028738292 0.012899528 0.08363165 -0.11988007 -0.085462965 -0.08560308 0.08545158 -0.13190854
0.063393705 0.08031439 0.120529465 0.056923047 0.06927964 -0.11145258 -0.004056409 -0.02350731
0.05642563 0.03737247 -0.10880842 0.028447395 -0.07567139 -0.1174346 0.14804578 -0.13597989
0.10738137 0.06506424 0.061818454 -0.10014809 -0.14097041 0.010633575 -0.11823412 0.15563937
-0.12536518 -0.07469159 -0.0888139 0.10990827 0.1390263 -0.1511246 -0.09831469 0.091247775
-0.11243573 0.10200893 0.039612696 -0.13940738 -0.11148817 -0.0031636385 -0.14482485 -0.14115316
0.054577127 -0.027462456 0.0979029 0.14593261 0.14093032 -0.15099338 -0.003503643 -0.012564732
0.15448225 -0.024060927 0.022653867 0.16242848 0.13384902 0.07335817 -0.06577775 0.008674506
-0.07770013 0.15380505 0.06811403 -0.08705767 -0.11264827 0.11464857 -0.07268737 -0.11893727
0.08542804 -0.06600704 0.032466143 0.051055714 0.14515851 -0.06510963 -0.15157495 -0.099824056
-0.1549926 0.053881194 -0.10099245 0.12337766 0.12366633 -0.02719677 -0.013079758 0.13491821

StatefulPartitionedCall/sequential_1/conv2d_2_1/Squeeze:0 f4 [8]
00000000: 9fc8 4b3a 6a0f 04bc e822 f3bb 1602 023c
00000010: 1a00 0bbc c2f5 383c d340 b93c 5a8a 6c3b
0.00077737303 -0.008060316 -0.0074199326 0.007935068 -0.008483911 0.011289062 0.022613918 0.0036093206

StatefulPartitionedCall/sequential_1/conv2d_1_2/convolution/ReadVariableOp:0 f4 [16, 32, 3, 3]
00000000: 6f6a d33b d8db 873d 172e 02bd ed42 c83d
00000010: 458b b03d 751b 213d 5e35 b7bd aae7 ccbc
00000020: 037d 30bd 7d15 b33d 2465 c83c 6f90 a23d
00000030: d422 ccbd c01a 40bb 6f5a a63d e2b6 3a3d
00000040: f316 e4bd c69c 7e3d 0bdc 84bd bb34 cd3d
00000050: 4883 97bd 2c05 823c 5214 3d3d a7b3 ed3d
00000060: 92ee 56bd a07f 8f3b e8e3 a6bd 9748 813d
00000070: 29a7 b03d 5507 e4bd 721c 2cbd 7cd9 75bd
00000080: 549a e7bd 14cb b0bc fcb6 96bc a7e9 b33d
00000090: 2e13 50bd cc35 843c 1dbc c13d f9ae 9c3d
000000a0: 2ce2 f73c b649 d6bd 9c2f c03c 5bb5 8a3d
000000b0: b4b8 d03c d7ae e8bd 1620 80bd 58ea 0a3d
000000c0: 4a8a fbbc 4831 56bd ed59 cdbd ab63 cd3d
000000d0: 63f7 43bd 5668 a0bd 4da5 23bc 028c b13d
000000e0: b0ac dc3d 6266 903d a089 923d 15bb ca3c
000000f0: c49c abbd b768 bdbd b89c 483d 5075 3dbd
00000100: 500d d1bd 1a23 d8bd 3c9b 79bd 1cb4 45bd
00000110: 189e 25be 69fe 83bc 6650 01be bd00 f53c
00000120: 67ca 3f3d 7efc 933d 3dff 3abd 4ab5 c1bd
00000130: 386a 5ebd eb94 22bb 9e69 6ebd 55e2 b13d
00000140: 7237 1ebc 083e 38bc 4253 78bd d291 f73b
00000150: 875a 75bc 3b7f a5bc 41af f23d 53b9 29bd
00000160: 07cd 73bc 9fc8 9e3c c4e9 4e3d 6981 b1bc
00000170: 395a 033b 4485 74bd 8e9d 3cbe 1188 40be
00000180: b264 80bd a55b 71be ca1f 30be 87fc fbbc
00000190: c47c 5dbd e59c a7bd 7402 bd3d df43 403d
000001a0: 92e6 33bb 74c0 5b3b 6d31 f03c 0aac 023c
000001b0: f8cd ba3d 206e cbbc c4a6 c33c e7a8 87bd
000001c0: 8e47 3b3d 0229 dcbd c136 503d ec50 b5bd
000001d0: 5bba 8e3d 8f58 eb3d 0429 59bc 7633 373d
000001e0: 3843 88bd b930 a13d 95cf 48bc da48 e53d
000001f0: 2f8a 6c3d 2e74 c23d 262d 8cbc 32ac fa3c
00000200: 3582 5c3d 11d5 e83c 38e7 c53d 2f28 083d
00000210: 255a 78bd 4fde 7cbd b012 333d 502a 3bbc
00000220: 04fb 59bb 4b6a 9c3d 775f 923d abe8 f33d
00000230: bd60 9bbc f612 c43b be48 fd3c 3d62 ef3c
00000240: 5fc8 80bd 3660 713d 85a4 b9bd 768c 543d
00000250: 8935 cd3d ef54 42bd 430c 063d c584 703c
00000260: f7fc dd3d 0f49 39be df69 8dbd 50c5 983c
00000270: 63bb 4cbe c0c4 41be c5c2 9abd 30f5 f3bd
00000280: ddcb 1dbe 6ea3 dcbd 0945 67bd bb56 543d
00000290: 9645 d63d 9d73 22bd 8f45 483d 9833 a13d
000002a0: 75bb af3b 3bfe b13d d189 93bc 03da 89bd
000002b0: 19d1 cdbd 2a48 dcbd f952 ba3d dfa2 8dbd
000002c0: 70ff 7fbc 2a23 ad3d 1c8b 9ebd 9b62 193d
000002d0: acea adbd 954d b23d c0d9 9d3a 2109 eabd
000002e0: d377 8a3d 4da5 a03d 07dc 923d 1a6e 25bd
000002f0: 7ab0 4e3d 5d99 a83d 9f9e d8bd 409d d5bd
00000300: ac75 163d 0cfc c937 71e3 89bd a92d d4bd
00000310: 3821 5dbd ef20 913d 92a1 9ebc cfe5 d43d
00000320: fd79 d33d 6583 89bd cef3 3c3d 115b 1f3d
00000330: 6b27 2b3b 1096 bc3b abb8 093b d292 0b3d
00000340: 1d90 173d 5e93 913d 20e9 da3d 4ade d03d
00000350: 662d 233d 26aa be3d 90f1 1fbd 99ea a43d
00000360: 4bf1 f03d 3d9c babd 4c86 c1bc 819b c13d
00000370: eef3 c03d 5789 87bd 3b5c 6dbd 37a3 fb3b
00000380: 9512 83bd 2099 213d 086a 143c 00a2 3039
00000390: 34ff e53c d583 ec3d 6974 cb3d 897a 8a3d
000003a0: 9dfa c43d ee98 20bd f17c 1f3d 80aa 0dbd
000003b0: cd27 323c f16e aebc c9a3 243d 309b c83d
000003c0: 1c4d 893c a82e d8bd 974e dc3d 2ab5 113e
000003d0: 8457 a93d 84f0 1c3e d35d 823d ecab 1d3d
000003e0: 6c6e 15bd c567 e2bc f139 213d 321a 09be
000003f0: 354a 1fbe 9e4e 11be 89fa 81be accd 66be
0.006451897 0.06633729 -0.031782236 0.0977839 0.086203136 0.039332826 -0.08945726 -0.02501281
-0.04308797 0.08744333 0.02446229 0.07937705 -0.099675804 -0.002931282 0.081227176 0.045584567
-0.1113719 0.06216123 -0.06487282 0.10019823 -0.07398087 0.015871607 0.046161957 0.116065316
-0.052473612 0.0043792278 -0.081489384 0.063126735 0.08625633 -0.11134211 -0.042019315 -0.060021862
-0.11308733 -0.02158121 -0.0183978 0.087848 -0.05079954 0.016138934 0.09459708 0.07650561
0.030259214 -0.10463278 0.023460202 0.06772872 0.025478698 -0.11361473 -0.0625612 0.033914894
-0.03070559 -0.052293092 -0.100269176 0.10028776 -0.04784335 -0.078324005 -0.009988141 0.086692825
0.10775125 0.07050778 0.07155156 0.02474741 -0.0837951 -0.092484884 0.048977584 -0.046254456
-0.10207617 -0.1055357 -0.06093906 -0.04826747 -0.16173589 -0.016112523 -0.12628326 0.029907579
0.046823885 0.072258934 -0.04565357 -0.09458406 -0.054300517 -0.0024808 -0.058206193 0.086857475
-0.009656774 -0.011245258 -0.060626276 0.007555225 -0.014975197 -0.02020227 0.11849833 -0.041436505
-0.014880425 0.019382773 0.050515905 -0.021668153 0.002004279 -0.059697405 -0.18419477 -0.18801905
-0.06269206 -0.23570116 -0.17199627 -0.030760063 -0.054074064 -0.08184222 0.092289835 0.046939727
-0.0027450663 0.003353146 0.029320443 0.007975588 0.09121317 -0.024832785 0.023883231 -0.066240124
0.045722537 -0.10750009 0.050833467 -0.08853325 0.06969138 0.114915006 -0.013254408 0.04472681
-0.06653446 0.07870621 -0.012256523 0.11195536 0.05774897 0.09494816 -0.017111372 0.030599687
0.053835113 0.02842191 0.09663242 0.033241447 -0.060632844 -0.061735447 0.043718994 -0.011423662
-0.003326119 0.07637461 0.07147115 0.11909612 -0.018967027 0.0059837056 0.030918475 0.029221648
-0.06288218 0.058929645 -0.09064583 0.051891766 0.10019977 -0.04744428 0.032726537 0.014680092
0.10839265 -0.18094276 -0.06904959 0.018648773 -0.19993357 -0.1892271 -0.075566806 -0.11912
-0.15409799 -0.10773359 -0.05646232 0.051840525 0.10462491 -0.03966104 0.04889446 0.07871169
0.005362923 0.08691069 -0.018010052 -0.067310356 -0.10049648 -0.10755952 0.09097857 -0.06915831
-0.015624866 0.08453973 -0.07741377 0.037447553 -0.08492026 0.08706204 0.0012043044 -0.114275225
0.06761136 0.078440286 0.07170873 -0.040388204 0.05046127 0.08232377 -0.105771296 -0.10430384
0.036733314 2.4078436e-05 -0.06732834 -0.103602715 -0.053986758 0.0708636 -0.019364152 0.10395395
0.10326002 -0.06714515 0.046130948 0.038905207 0.0026116024 0.0057551935 0.0021014612 0.034075566
0.03700267 0.07108186 0.10688996 0.10198648 0.039838217 0.09309797 -0.03904873 0.080525585
0.11764773 -0.09111831 -0.023623608 0.09453488 0.09421526 -0.06617992 -0.057949286 0.007679369
-0.064000286 0.039452672 0.009058483 0.00016845018 0.028075792 0.115485825 0.09934313 0.06761653
0.09618113 -0.039208345 0.038937513 -0.03458643 0.010873747 -0.021293135 0.04019526 0.09795225
0.016760401 -0.10555774 0.10757177 0.14229265 0.082686454 0.15326124 0.06365552 0.038494036
-0.03648226 -0.027637372 0.039361898 -0.13388899 -0.15555651 -0.14190146 -0.25386456 -0.22539395

StatefulPartitionedCall/sequential_1/conv2d_1_2/Squeeze:0 f4 [16]
00000000: b5b2 993b b3a3 f03a 5152 ad3b 2878 9c3b
00000010: 1f82 79bc 7684 7d3a 85c5 d4bb 932a 15bc
00000020: 1d5c 29bc 6295 c5ba 86aa 24bc 1f93 8bbb
00000030: 025f 7cbc 064c 42bc 7078 8abb adbe f13b
0.004690493 0.0018359333 0.005289354 0.004775066 -0.015228777 0.00096709223 -0.0064932727 -0.009104389
-0.010336903 -0.0015074427 -0.010050422 -0.0042594816 -0.015403511 -0.011858946 -0.004225783 0.0073774667

StatefulPartitionedCall/sequential_1/conv2d_1/convolution/ReadVariableOp:0 f4 [32, 1, 3, 3]
00000000: b2b3 033d f838 d33c d19c 043e 4805 d73d
00000010: 39fb 49bc 0783 613d c338 eb3d ec6a 1cbd
00000020: 6404 d43d 1496 913d 511e 05be 1c6a c0bc
00000030: a884 b93c a489 cfbd 206c 983c 50f5 c5bc
00000040: 6079 803d 7e06 26bd e48f f9bd c6e7 adbd
00000050: 749a 94bd 88f4 f3bd 1026 f8bc f28d be3d
00000060: 75f3 0abe 3e3f 0dbe daaa 94bd f070 2abc
00000070: d253 9c3d 28d8 f4bc afa0 febd eef0 c6bd
00000080: ec4f 2bbd 904c aa3c 739e ecbd 2068 fe3c
00000090: 4ced 40bd 6caa aa3d c3b6 02be 8227 49bd
000000a0: 108e 22bc e4e7 8bbd 0000 613c 7c90 27bd
000000b0: 78d0 913c 4f72 0f3e 3c7c d3bc c8f4 9abd
000000c0: d14a c53d a719 48bd 9d5e adbc 5544 94bd
000000d0: 7283 853c 59ce ccbc 9ad6 d9b8 260c d33c
000000e0: afdd 913c 0c1d f93c 0e79 083e e29d fb3d
000000f0: b4f4 413d 9d4b 3e3d 6c11 66bd cbb2 09be
00000100: 76a4 b4bd c71a 8ebd 3685 f63d 2ad6 f63d
00000110: aa65 283e 7d2c c5bc 34cc 3bbd c56b 293e
00000120: 5403 843d 3b28 963c 5819 3e3d 4e70 043e
00000130: 89c7 8cbb 4a27 5b3b e4a3 a9bd d702 bd3d
00000140: 23f7 d1bd 5889 a43d 3d9c fd3d c61a 863d
00000150: 4a18 efba ca5a 003e a6f3 e73c 63d8 f0bd
00000160: 1173 10bd ac04 fcbd e558 6e3d 0bc2 2c3d
00000170: 3e44 5d3e 3d36 123e 2cbb 933d 956f 113c
00000180: 48b7 76bd 959d 4dbe 7db1 57be 64f9 dbbd
00000190: 64a2 603b aa65 b53d 4543 223d 5f81 ab3d
000001a0: 0ece c5bb a2ea 15be 7ecf f1bd b05d 7c3d
000001b0: bab2 b1bd 0004 0fbe d3cf 8c3d 0687 d9bd
000001c0: 704d 503d 9523 5e3c 7ea4 4cbd b089 ac3d
000001d0: e3e7 0bbe a8be 8738 42a4 d83d d9f3 ee3d
000001e0: cddc e5b9 0cbc e63c edc1 b53d 8974 9f3d
000001f0: c25d 23bd 06d5 9abd a420 363d 68bf ab3d
00000200: 4e0c b73d edbc 203c b6c8 273d d62d 5abd
00000210: ffbc f13d ee7d b3bd 2c45 11bc 315e 123e
00000220: afe8 ff3d 264f 8f3d ed3e 173c f742 183e
00000230: 0dc8 f4bd 7843 85bd 6af3 1abd 8e5c 0a3e
00000240: bd56 023e 115d 173e ee73 af3d df00 8a3d
00000250: 2a95 69bd 4608 023e 6c5b 99bd 267f 9c3d
00000260: 3929 3cbd deab eabd 441a ffbd 40c1 05be
00000270: 3746 3c3d d84a 013e 6436 033d 8fb2 cb3d
00000280: 39b0 443d aa7c bdbd cea3 bd3d 2a0d 173d
00000290: 3aaa cc3d d388 ee3d aea8 df3d 6f32 6a3d
000002a0: 3bab 9abc 1c06 193d 2b57 493d 55c2 dbbd
000002b0: 065f 2b3e b4ec 943c bae7 a0bd 47ce 5e3d
000002c0: db0a 51bc 6c6b 10be 2088 98bd 0c75 143c
000002d0: 64ec 52bd 0af3 abbd 9e61 5bbd b8ee ee3c
000002e0: ed8f fbbd 5474 abbd 5462 be3d 1c4c f3bc
000002f0: 008c bf39 862d 99bd c180 e83c 6b9d 323d
00000300: 240c 71bd e152 0f3e 40a0 003e d495 b2bd
00000310: ef1a 09bd 1f9d 303d 5a4a ea3d 1d0d b9bd
00000320: e799 9ebc 9c59 adbd 5fdc 9b3d 5ff0 20bd
00000330: 966c b23d e232 973d f0ce 07be 1aec ef3d
00000340: 160f eebd 44f3 703c 0d8f d63d 3e21 e23c
00000350: dd29 e73d e9e4 1bbd 526b d23d 9633 8e3d
00000360: f3ba e7bd ea99 d93d c921 5d3d 78ef edbd
00000370: a851 453d 3410 513d c3cb c93d 75cb 04bd
00000380: 4a2e 873d d8d9 0f3d ce5b 28bd 1a8f 94bd
00000390: a5ba 8fbd 506e 2f3c 9ac0 86bd 0664 9bbd
000003a0: a7f7 2d3d aa9f 9f3c 8262 da3c 8517 ba3d
000003b0: a11b 6bbd a0db cabd ca9e 913d b965 393d
000003c0: 0615 3f3d af8d 81bd c9bb 29bd a6ee 96bd
000003d0: aa39 eabd 80b3 f6bc 0c26 463e 028e c43d
000003e0: bab6 11be 92eb cb3d ffe5 4bbc 3b21 0bbe
000003f0: 6343 d5bd b04a baba 6e34 3a3d 151f 90bd
0.032153793 0.025784 0.12950446 0.10499054 -0.012327963 0.055056598 0.11485436 -0.038187906
0.103524 0.07108703 -0.12999846 -0.023488097 0.022646263 -0.10133675 0.018606246 -0.024164826
0.062731504 -0.040533535 -0.12185648 -0.08491473 -0.07256022 -0.11911875 -0.030291587 0.09304418
-0.13569434 -0.13793656 -0.0725915 -0.010402903 0.07633175 -0.029888228 -0.12432992 -0.097139224
-0.041824266 0.020788461 -0.11553659 0.03105551 -0.047101304 0.08333287 -0.1276503 -0.049109943
-0.009921566 -0.06831339 0.01373291 -0.040909275 0.017799601 0.14008449 -0.025816076 -0.075662196
0.09633411 -0.04885259 -0.02116328 -0.07239596 0.01629803 -0.025000738 -0.00010387339 0.025762629
0.017805902 0.030409358 0.13327429 0.12285973 0.047352508 0.04645883 -0.05616896 -0.1344711
-0.08820431 -0.06938701 0.12037127 0.12052567 0.16445032 -0.024069065 -0.04584904 0.16545017
0.06445947 0.01832973 0.04641089 0.12933466 -0.0042962474 0.0033440166 -0.08283213 0.09229057
-0.10252216 0.08034009 0.12383316 0.065480754 -0.0018241492 0.12534633 0.028314423 -0.117600225
-0.035265986 -0.123055786 0.058190245 0.04217724 0.21608064 0.14278503 0.072134346 0.008876701
-0.060233384 -0.20079644 -0.210638 -0.10740927 0.003427648 0.088572815 0.039614934 0.08374285
-0.0060365265 -0.14640287 -0.11807154 0.061612785 -0.086766675 -0.1396637 0.06875577 -0.10621457
0.0508551 0.013558288 -0.04996156 0.08424699 -0.13662677 6.472814e-05 0.10578205 0.11667604
-0.00043842793 0.02816584 0.08874879 0.07785899 -0.039884336 -0.07560162 0.044464722 0.08386117
0.08937894 0.009810668 0.040962897 -0.05326637 0.11803626 -0.087642536 -0.0088665895 0.14293744
0.12495553 0.06997518 0.009231311 0.14869295 -0.11952219 -0.06507009 -0.037829794 0.1351187
0.127284 0.14781596 0.08567034 0.067384474 -0.05702702 0.12698469 -0.074881405 0.07641439
-0.04593775 -0.11458562 -0.12456182 -0.13062 0.0459654 0.12626207 0.032034293 0.09946167
0.04801962 -0.092522934 0.09259759 0.03687779 0.09993406 0.11647191 0.10920845 0.057177003
-0.018880477 0.037359342 0.049155395 -0.10730425 0.16735467 0.018179275 -0.07856698 0.05439594
-0.012758936 -0.14103478 -0.07447839 0.009061109 -0.05149497 -0.083959654 -0.053559892 0.029166564
-0.12283311 -0.08371797 0.09296098 -0.029699378 0.00036534667 -0.07479386 0.028381707 0.043607157
-0.05884947 0.1399646 0.1256113 -0.08719984 -0.03347295 0.043118592 0.11439963 -0.09035704
-0.019360496 -0.08464357 0.07610392 -0.039291736 0.087121174 0.07382752 -0.13262534 0.11714955
-0.11623971 0.014706437 0.104765035 0.027603742 0.11287282 -0.038060103 0.10274376 0.06943433
-0.113149546 0.1062506 0.0539873 -0.11617941 0.048173577 0.051040843 0.098533176 -0.032420594
0.06600626 0.03511986 -0.041103177 -0.07253857 -0.070180215 0.010707453 -0.065797046 -0.07587437
0.042472508 0.019485313 0.0266583 0.09086517 -0.057399396 -0.099051714 0.07110365 0.045263026
0.04665091 -0.06325852 -0.04143885 -0.07369737 -0.1143678 -0.03011489 0.19350451 0.09597398
-0.14229861 0.09957041 -0.012444972 -0.13586895 -0.104132436 -0.0014212932 0.045460157 -0.070371784

StatefulPartitionedCall/sequential_1/conv2d_1/Squeeze:0 f4 [32]
00000000: 62d2 b9bc 0000 0000 0000 0000 0000 0000
00000010: 0000 0000 00d1 fc3b 5862 fa3a 8633 84bb
00000020: 08d7 54bc 4e42 833b 7136 f13c 427a a1bc
00000030: 6f6e 3bbc ff8d 583b 7a7a 333a cd4a 763b
00000040: ffec 263b 1e1d db3d a0d7 e439 cbf6 073d
00000050: 0000 0000 66b6 35bc a0c3 63ba 1de5 533b
00000060: 82dc 03bc a5c9 81bc f55e 6cba c38e 643d
00000070: ed1d c13d b03d 923b 0000 0000 6b5a 033d
-0.022683326 0.0 0.0 0.0 0.0 0.0077153444 0.0019102795 -0.0040344624
-0.012990721 0.004005707 0.029444905 -0.019711617 -0.011439904 0.003304362 0.00068465585 0.0037581206
0.002547085 0.10698913 0.00043648202 0.033194344 0.0 -0.01109085 -0.0008688513 0.0032332607
-0.008048179 -0.015843222 -0.0009016835 0.05580021 0.09429536 0.00446292 0.0 0.03206865
